nohup: ignoring input
net148 (
  (sml): Linear (8192 -> 10)
  (conv1): Sequential (
    (0): Conv2d(3, 64, kernel_size=(3, 3), stride=(1, 1), padding=(1, 1))
  )
  (block1_U1_l1): Sequential (
    (0): Sequential (
      (0): Sequential (
        (0): Conv2d(3, 64, kernel_size=(1, 1), stride=(1, 1))
        (1): BatchNorm2d(64, eps=1e-05, momentum=0.1, affine=True)
        (2): ReLU ()
      )
      (1): Sequential (
        (0): Conv2d(64, 64, kernel_size=(1, 7), stride=(1, 1), padding=(0, 3))
        (1): BatchNorm2d(64, eps=1e-05, momentum=0.1, affine=True)
        (2): ReLU ()
      )
      (2): Sequential (
        (0): Conv2d(64, 64, kernel_size=(7, 1), stride=(1, 1), padding=(3, 0))
        (1): BatchNorm2d(64, eps=1e-05, momentum=0.1, affine=True)
        (2): ReLU ()
      )
    )
  )
  (block1_U1_l2): Sequential (
    (0): Sequential (
      (0): Conv2d(3, 3, kernel_size=(3, 3), stride=(1, 1), padding=(1, 1), groups=3)
      (1): BatchNorm2d(3, eps=1e-05, momentum=0.1, affine=True)
      (2): Conv2d(3, 64, kernel_size=(1, 1), stride=(1, 1))
      (3): BatchNorm2d(64, eps=1e-05, momentum=0.1, affine=True)
      (4): ReLU ()
    )
  )
  (block1_U2_l1): Sequential (
    (0): Sequential (
      (0): Conv2d(64, 64, kernel_size=(3, 3), stride=(1, 1), padding=(2, 2), dilation=(2, 2))
      (1): BatchNorm2d(64, eps=1e-05, momentum=0.1, affine=True)
      (2): ReLU ()
    )
  )
  (block1_U2_l2): Sequential (
    (0): Sequential (
      (0): Conv2d(64, 64, kernel_size=(5, 5), stride=(1, 1), padding=(2, 2), groups=64)
      (1): BatchNorm2d(64, eps=1e-05, momentum=0.1, affine=True)
      (2): Conv2d(64, 64, kernel_size=(1, 1), stride=(1, 1))
      (3): BatchNorm2d(64, eps=1e-05, momentum=0.1, affine=True)
      (4): ReLU ()
    )
  )
  (block2_U1_l1): Sequential (
    (0): Sequential (
      (0): Sequential (
        (0): Conv2d(128, 64, kernel_size=(1, 1), stride=(2, 2))
        (1): BatchNorm2d(64, eps=1e-05, momentum=0.1, affine=True)
        (2): ReLU ()
      )
      (1): Sequential (
        (0): Conv2d(64, 64, kernel_size=(1, 7), stride=(1, 1), padding=(0, 3))
        (1): BatchNorm2d(64, eps=1e-05, momentum=0.1, affine=True)
        (2): ReLU ()
      )
      (2): Sequential (
        (0): Conv2d(64, 64, kernel_size=(7, 1), stride=(1, 1), padding=(3, 0))
        (1): BatchNorm2d(64, eps=1e-05, momentum=0.1, affine=True)
        (2): ReLU ()
      )
    )
  )
  (block2_U1_l2): Sequential (
    (0): Sequential (
      (0): Conv2d(128, 128, kernel_size=(3, 3), stride=(2, 2), padding=(1, 1), groups=128)
      (1): BatchNorm2d(128, eps=1e-05, momentum=0.1, affine=True)
      (2): Conv2d(128, 64, kernel_size=(1, 1), stride=(1, 1))
      (3): BatchNorm2d(64, eps=1e-05, momentum=0.1, affine=True)
      (4): ReLU ()
    )
  )
  (block2_U2_l1): Sequential (
    (0): Sequential (
      (0): Conv2d(64, 64, kernel_size=(3, 3), stride=(1, 1), padding=(2, 2), dilation=(2, 2))
      (1): BatchNorm2d(64, eps=1e-05, momentum=0.1, affine=True)
      (2): ReLU ()
    )
  )
  (block2_U2_l2): Sequential (
    (0): Sequential (
      (0): Conv2d(64, 64, kernel_size=(5, 5), stride=(1, 1), padding=(2, 2), groups=64)
      (1): BatchNorm2d(64, eps=1e-05, momentum=0.1, affine=True)
      (2): Conv2d(64, 64, kernel_size=(1, 1), stride=(1, 1))
      (3): BatchNorm2d(64, eps=1e-05, momentum=0.1, affine=True)
      (4): ReLU ()
    )
  )
  (block3_U1_l1): Sequential (
    (0): Sequential (
      (0): Sequential (
        (0): Conv2d(128, 128, kernel_size=(1, 1), stride=(1, 1))
        (1): BatchNorm2d(128, eps=1e-05, momentum=0.1, affine=True)
        (2): ReLU ()
      )
      (1): Sequential (
        (0): Conv2d(128, 128, kernel_size=(1, 7), stride=(1, 1), padding=(0, 3))
        (1): BatchNorm2d(128, eps=1e-05, momentum=0.1, affine=True)
        (2): ReLU ()
      )
      (2): Sequential (
        (0): Conv2d(128, 128, kernel_size=(7, 1), stride=(1, 1), padding=(3, 0))
        (1): BatchNorm2d(128, eps=1e-05, momentum=0.1, affine=True)
        (2): ReLU ()
      )
    )
  )
  (block3_U1_l2): Sequential (
    (0): Sequential (
      (0): Conv2d(128, 128, kernel_size=(3, 3), stride=(1, 1), padding=(1, 1), groups=128)
      (1): BatchNorm2d(128, eps=1e-05, momentum=0.1, affine=True)
      (2): Conv2d(128, 128, kernel_size=(1, 1), stride=(1, 1))
      (3): BatchNorm2d(128, eps=1e-05, momentum=0.1, affine=True)
      (4): ReLU ()
    )
  )
  (block3_U2_l1): Sequential (
    (0): Sequential (
      (0): Conv2d(128, 128, kernel_size=(3, 3), stride=(1, 1), padding=(2, 2), dilation=(2, 2))
      (1): BatchNorm2d(128, eps=1e-05, momentum=0.1, affine=True)
      (2): ReLU ()
    )
  )
  (block3_U2_l2): Sequential (
    (0): Sequential (
      (0): Conv2d(128, 128, kernel_size=(5, 5), stride=(1, 1), padding=(2, 2), groups=128)
      (1): BatchNorm2d(128, eps=1e-05, momentum=0.1, affine=True)
      (2): Conv2d(128, 128, kernel_size=(1, 1), stride=(1, 1))
      (3): BatchNorm2d(128, eps=1e-05, momentum=0.1, affine=True)
      (4): ReLU ()
    )
  )
  (block4_U1_l1): Sequential (
    (0): Sequential (
      (0): Sequential (
        (0): Conv2d(256, 128, kernel_size=(1, 1), stride=(2, 2))
        (1): BatchNorm2d(128, eps=1e-05, momentum=0.1, affine=True)
        (2): ReLU ()
      )
      (1): Sequential (
        (0): Conv2d(128, 128, kernel_size=(1, 7), stride=(1, 1), padding=(0, 3))
        (1): BatchNorm2d(128, eps=1e-05, momentum=0.1, affine=True)
        (2): ReLU ()
      )
      (2): Sequential (
        (0): Conv2d(128, 128, kernel_size=(7, 1), stride=(1, 1), padding=(3, 0))
        (1): BatchNorm2d(128, eps=1e-05, momentum=0.1, affine=True)
        (2): ReLU ()
      )
    )
  )
  (block4_U1_l2): Sequential (
    (0): Sequential (
      (0): Conv2d(256, 256, kernel_size=(3, 3), stride=(2, 2), padding=(1, 1), groups=256)
      (1): BatchNorm2d(256, eps=1e-05, momentum=0.1, affine=True)
      (2): Conv2d(256, 128, kernel_size=(1, 1), stride=(1, 1))
      (3): BatchNorm2d(128, eps=1e-05, momentum=0.1, affine=True)
      (4): ReLU ()
    )
  )
  (block4_U2_l1): Sequential (
    (0): Sequential (
      (0): Conv2d(128, 128, kernel_size=(3, 3), stride=(1, 1), padding=(2, 2), dilation=(2, 2))
      (1): BatchNorm2d(128, eps=1e-05, momentum=0.1, affine=True)
      (2): ReLU ()
    )
  )
  (block4_U2_l2): Sequential (
    (0): Sequential (
      (0): Conv2d(128, 128, kernel_size=(5, 5), stride=(1, 1), padding=(2, 2), groups=128)
      (1): BatchNorm2d(128, eps=1e-05, momentum=0.1, affine=True)
      (2): Conv2d(128, 128, kernel_size=(1, 1), stride=(1, 1))
      (3): BatchNorm2d(128, eps=1e-05, momentum=0.1, affine=True)
      (4): ReLU ()
    )
  )
  (block5_U1_l1): Sequential (
    (0): Sequential (
      (0): Sequential (
        (0): Conv2d(256, 256, kernel_size=(1, 1), stride=(1, 1))
        (1): BatchNorm2d(256, eps=1e-05, momentum=0.1, affine=True)
        (2): ReLU ()
      )
      (1): Sequential (
        (0): Conv2d(256, 256, kernel_size=(1, 7), stride=(1, 1), padding=(0, 3))
        (1): BatchNorm2d(256, eps=1e-05, momentum=0.1, affine=True)
        (2): ReLU ()
      )
      (2): Sequential (
        (0): Conv2d(256, 256, kernel_size=(7, 1), stride=(1, 1), padding=(3, 0))
        (1): BatchNorm2d(256, eps=1e-05, momentum=0.1, affine=True)
        (2): ReLU ()
      )
    )
  )
  (block5_U1_l2): Sequential (
    (0): Sequential (
      (0): Conv2d(256, 256, kernel_size=(3, 3), stride=(1, 1), padding=(1, 1), groups=256)
      (1): BatchNorm2d(256, eps=1e-05, momentum=0.1, affine=True)
      (2): Conv2d(256, 256, kernel_size=(1, 1), stride=(1, 1))
      (3): BatchNorm2d(256, eps=1e-05, momentum=0.1, affine=True)
      (4): ReLU ()
    )
  )
  (block5_U2_l1): Sequential (
    (0): Sequential (
      (0): Conv2d(256, 256, kernel_size=(3, 3), stride=(1, 1), padding=(2, 2), dilation=(2, 2))
      (1): BatchNorm2d(256, eps=1e-05, momentum=0.1, affine=True)
      (2): ReLU ()
    )
  )
  (block5_U2_l2): Sequential (
    (0): Sequential (
      (0): Conv2d(256, 256, kernel_size=(5, 5), stride=(1, 1), padding=(2, 2), groups=256)
      (1): BatchNorm2d(256, eps=1e-05, momentum=0.1, affine=True)
      (2): Conv2d(256, 256, kernel_size=(1, 1), stride=(1, 1))
      (3): BatchNorm2d(256, eps=1e-05, momentum=0.1, affine=True)
      (4): ReLU ()
    )
  )
  (lmx): Sequential (
    (0): MaxPool2d (size=(2, 2), stride=(2, 2), dilation=(1, 1))
  )
)
32
Epoch: [0][0/781]	Time 1.354 (1.354)	Data 0.010 (0.010)	Loss 2.5220 (2.5220)	Prec@1 6.250 (6.250)	Prec@5 46.875 (46.875)
Epoch: [0][10/781]	Time 0.148 (0.258)	Data 0.010 (0.010)	Loss 8.4012 (15.1367)	Prec@1 7.812 (11.080)	Prec@5 57.812 (51.705)
…
Epoch: [149][750/781]	Time 0.301 (0.303)	Data 0.012 (0.012)	Loss 0.2513 (0.2174)	Prec@1 89.062 (92.431)	Prec@5 100.000 (99.829)
Epoch: [149][760/781]	Time 0.305 (0.303)	Data 0.011 (0.012)	Loss 0.2580 (0.2172)	Prec@1 90.625 (92.440)	Prec@5 100.000 (99.823)
Epoch: [149][770/781]	Time 0.296 (0.303)	Data 0.015 (0.012)	Loss 0.3086 (0.2168)	Prec@1 85.938 (92.457)	Prec@5 100.000 (99.826)
Epoch: [149][780/781]	Time 0.296 (0.303)	Data 0.014 (0.012)	Loss 0.2241 (0.2172)	Prec@1 90.625 (92.436)	Prec@5 100.000 (99.826)
 * Prec@1 87.180 Prec@5 99.450
87.37
The Best accuracy fornet148is:  87.37
net149 (
  (sml): Linear (12288 -> 10)
  (conv1): Sequential (
    (0): Conv2d(3, 64, kernel_size=(3, 3), stride=(1, 1), padding=(1, 1))
  )
  (block1_U1_l1): Sequential (
    (0): Sequential (
      (0): Sequential (
        (0): Conv2d(3, 64, kernel_size=(1, 1), stride=(1, 1))
        (1): BatchNorm2d(64, eps=1e-05, momentum=0.1, affine=True)
        (2): ReLU ()
      )
      (1): Sequential (
        (0): Conv2d(64, 64, kernel_size=(1, 7), stride=(1, 1), padding=(0, 3))
        (1): BatchNorm2d(64, eps=1e-05, momentum=0.1, affine=True)
        (2): ReLU ()
      )
      (2): Sequential (
        (0): Conv2d(64, 64, kernel_size=(7, 1), stride=(1, 1), padding=(3, 0))
        (1): BatchNorm2d(64, eps=1e-05, momentum=0.1, affine=True)
        (2): ReLU ()
      )
    )
  )
  (block1_U1_l2): Sequential (
    (0): Sequential (
      (0): Conv2d(3, 3, kernel_size=(3, 3), stride=(1, 1), padding=(1, 1), groups=3)
      (1): BatchNorm2d(3, eps=1e-05, momentum=0.1, affine=True)
      (2): Conv2d(3, 64, kernel_size=(1, 1), stride=(1, 1))
      (3): BatchNorm2d(64, eps=1e-05, momentum=0.1, affine=True)
      (4): ReLU ()
    )
  )
  (block1_U2_l1): Sequential (
    (0): Sequential (
      (0): Conv2d(3, 64, kernel_size=(3, 3), stride=(1, 1), padding=(2, 2), dilation=(2, 2))
      (1): BatchNorm2d(64, eps=1e-05, momentum=0.1, affine=True)
      (2): ReLU ()
    )
  )
  (block1_U2_l2): Sequential (
    (0): Sequential (
      (0): Conv2d(3, 3, kernel_size=(5, 5), stride=(1, 1), padding=(2, 2), groups=3)
      (1): BatchNorm2d(3, eps=1e-05, momentum=0.1, affine=True)
      (2): Conv2d(3, 64, kernel_size=(1, 1), stride=(1, 1))
      (3): BatchNorm2d(64, eps=1e-05, momentum=0.1, affine=True)
      (4): ReLU ()
    )
  )
  (block2_U1_l1): Sequential (
    (0): Sequential (
      (0): Sequential (
        (0): Conv2d(192, 64, kernel_size=(1, 1), stride=(2, 2))
        (1): BatchNorm2d(64, eps=1e-05, momentum=0.1, affine=True)
        (2): ReLU ()
      )
      (1): Sequential (
        (0): Conv2d(64, 64, kernel_size=(1, 7), stride=(1, 1), padding=(0, 3))
        (1): BatchNorm2d(64, eps=1e-05, momentum=0.1, affine=True)
        (2): ReLU ()
      )
      (2): Sequential (
        (0): Conv2d(64, 64, kernel_size=(7, 1), stride=(1, 1), padding=(3, 0))
        (1): BatchNorm2d(64, eps=1e-05, momentum=0.1, affine=True)
        (2): ReLU ()
      )
    )
  )
  (block2_U1_l2): Sequential (
    (0): Sequential (
      (0): Conv2d(192, 192, kernel_size=(3, 3), stride=(2, 2), padding=(1, 1), groups=192)
      (1): BatchNorm2d(192, eps=1e-05, momentum=0.1, affine=True)
      (2): Conv2d(192, 64, kernel_size=(1, 1), stride=(1, 1))
      (3): BatchNorm2d(64, eps=1e-05, momentum=0.1, affine=True)
      (4): ReLU ()
    )
  )
  (block2_U2_l1): Sequential (
    (0): Sequential (
      (0): Conv2d(192, 64, kernel_size=(3, 3), stride=(2, 2), padding=(2, 2), dilation=(2, 2))
      (1): BatchNorm2d(64, eps=1e-05, momentum=0.1, affine=True)
      (2): ReLU ()
    )
  )
  (block2_U2_l2): Sequential (
    (0): Sequential (
      (0): Conv2d(192, 192, kernel_size=(5, 5), stride=(2, 2), padding=(2, 2), groups=192)
      (1): BatchNorm2d(192, eps=1e-05, momentum=0.1, affine=True)
      (2): Conv2d(192, 64, kernel_size=(1, 1), stride=(1, 1))
      (3): BatchNorm2d(64, eps=1e-05, momentum=0.1, affine=True)
      (4): ReLU ()
    )
  )
  (block3_U1_l1): Sequential (
    (0): Sequential (
      (0): Sequential (
        (0): Conv2d(192, 128, kernel_size=(1, 1), stride=(1, 1))
        (1): BatchNorm2d(128, eps=1e-05, momentum=0.1, affine=True)
        (2): ReLU ()
      )
      (1): Sequential (
        (0): Conv2d(128, 128, kernel_size=(1, 7), stride=(1, 1), padding=(0, 3))
        (1): BatchNorm2d(128, eps=1e-05, momentum=0.1, affine=True)
        (2): ReLU ()
      )
      (2): Sequential (
        (0): Conv2d(128, 128, kernel_size=(7, 1), stride=(1, 1), padding=(3, 0))
        (1): BatchNorm2d(128, eps=1e-05, momentum=0.1, affine=True)
        (2): ReLU ()
      )
    )
  )
  (block3_U1_l2): Sequential (
    (0): Sequential (
      (0): Conv2d(192, 192, kernel_size=(3, 3), stride=(1, 1), padding=(1, 1), groups=192)
      (1): BatchNorm2d(192, eps=1e-05, momentum=0.1, affine=True)
      (2): Conv2d(192, 128, kernel_size=(1, 1), stride=(1, 1))
      (3): BatchNorm2d(128, eps=1e-05, momentum=0.1, affine=True)
      (4): ReLU ()
    )
  )
  (block3_U2_l1): Sequential (
    (0): Sequential (
      (0): Conv2d(192, 128, kernel_size=(3, 3), stride=(1, 1), padding=(2, 2), dilation=(2, 2))
      (1): BatchNorm2d(128, eps=1e-05, momentum=0.1, affine=True)
      (2): ReLU ()
    )
  )
  (block3_U2_l2): Sequential (
    (0): Sequential (
      (0): Conv2d(192, 192, kernel_size=(5, 5), stride=(1, 1), padding=(2, 2), groups=192)
      (1): BatchNorm2d(192, eps=1e-05, momentum=0.1, affine=True)
      (2): Conv2d(192, 128, kernel_size=(1, 1), stride=(1, 1))
      (3): BatchNorm2d(128, eps=1e-05, momentum=0.1, affine=True)
      (4): ReLU ()
    )
  )
  (block4_U1_l1): Sequential (
    (0): Sequential (
      (0): Sequential (
        (0): Conv2d(384, 128, kernel_size=(1, 1), stride=(2, 2))
        (1): BatchNorm2d(128, eps=1e-05, momentum=0.1, affine=True)
        (2): ReLU ()
      )
      (1): Sequential (
        (0): Conv2d(128, 128, kernel_size=(1, 7), stride=(1, 1), padding=(0, 3))
        (1): BatchNorm2d(128, eps=1e-05, momentum=0.1, affine=True)
        (2): ReLU ()
      )
      (2): Sequential (
        (0): Conv2d(128, 128, kernel_size=(7, 1), stride=(1, 1), padding=(3, 0))
        (1): BatchNorm2d(128, eps=1e-05, momentum=0.1, affine=True)
        (2): ReLU ()
      )
    )
  )
  (block4_U1_l2): Sequential (
    (0): Sequential (
      (0): Conv2d(384, 384, kernel_size=(3, 3), stride=(2, 2), padding=(1, 1), groups=384)
      (1): BatchNorm2d(384, eps=1e-05, momentum=0.1, affine=True)
      (2): Conv2d(384, 128, kernel_size=(1, 1), stride=(1, 1))
      (3): BatchNorm2d(128, eps=1e-05, momentum=0.1, affine=True)
      (4): ReLU ()
    )
  )
  (block4_U2_l1): Sequential (
    (0): Sequential (
      (0): Conv2d(384, 128, kernel_size=(3, 3), stride=(2, 2), padding=(2, 2), dilation=(2, 2))
      (1): BatchNorm2d(128, eps=1e-05, momentum=0.1, affine=True)
      (2): ReLU ()
    )
  )
  (block4_U2_l2): Sequential (
    (0): Sequential (
      (0): Conv2d(384, 384, kernel_size=(5, 5), stride=(2, 2), padding=(2, 2), groups=384)
      (1): BatchNorm2d(384, eps=1e-05, momentum=0.1, affine=True)
      (2): Conv2d(384, 128, kernel_size=(1, 1), stride=(1, 1))
      (3): BatchNorm2d(128, eps=1e-05, momentum=0.1, affine=True)
      (4): ReLU ()
    )
  )
  (block5_U1_l1): Sequential (
    (0): Sequential (
      (0): Sequential (
        (0): Conv2d(384, 256, kernel_size=(1, 1), stride=(1, 1))
        (1): BatchNorm2d(256, eps=1e-05, momentum=0.1, affine=True)
        (2): ReLU ()
      )
      (1): Sequential (
        (0): Conv2d(256, 256, kernel_size=(1, 7), stride=(1, 1), padding=(0, 3))
        (1): BatchNorm2d(256, eps=1e-05, momentum=0.1, affine=True)
        (2): ReLU ()
      )
      (2): Sequential (
        (0): Conv2d(256, 256, kernel_size=(7, 1), stride=(1, 1), padding=(3, 0))
        (1): BatchNorm2d(256, eps=1e-05, momentum=0.1, affine=True)
        (2): ReLU ()
      )
    )
  )
  (block5_U1_l2): Sequential (
    (0): Sequential (
      (0): Conv2d(384, 384, kernel_size=(3, 3), stride=(1, 1), padding=(1, 1), groups=384)
      (1): BatchNorm2d(384, eps=1e-05, momentum=0.1, affine=True)
      (2): Conv2d(384, 256, kernel_size=(1, 1), stride=(1, 1))
      (3): BatchNorm2d(256, eps=1e-05, momentum=0.1, affine=True)
      (4): ReLU ()
    )
  )
  (block5_U2_l1): Sequential (
    (0): Sequential (
      (0): Conv2d(384, 256, kernel_size=(3, 3), stride=(1, 1), padding=(2, 2), dilation=(2, 2))
      (1): BatchNorm2d(256, eps=1e-05, momentum=0.1, affine=True)
      (2): ReLU ()
    )
  )
  (block5_U2_l2): Sequential (
    (0): Sequential (
      (0): Conv2d(384, 384, kernel_size=(5, 5), stride=(1, 1), padding=(2, 2), groups=384)
      (1): BatchNorm2d(384, eps=1e-05, momentum=0.1, affine=True)
      (2): Conv2d(384, 256, kernel_size=(1, 1), stride=(1, 1))
      (3): BatchNorm2d(256, eps=1e-05, momentum=0.1, affine=True)
      (4): ReLU ()
    )
  )
  (lmx): Sequential (
    (0): MaxPool2d (size=(2, 2), stride=(2, 2), dilation=(1, 1))
  )
)
32
Epoch: [0][0/781]	Time 0.991 (0.991)	Data 0.010 (0.010)	Loss 2.3609 (2.3609)	Prec@1 12.500 (12.500)	Prec@5 51.562 (51.562)
Epoch: [0][10/781]	Time 0.363 (0.423)	Data 0.012 (0.013)	Loss 6.8304 (23.7037)	Prec@1 6.250 (10.227)	Prec@5 48.438 (49.006)
…
Epoch: [149][750/781]	Time 0.353 (0.381)	Data 0.012 (0.013)	Loss 0.4380 (0.3113)	Prec@1 87.500 (89.042)	Prec@5 100.000 (99.717)
Epoch: [149][760/781]	Time 0.364 (0.380)	Data 0.014 (0.013)	Loss 0.3340 (0.3110)	Prec@1 89.062 (89.054)	Prec@5 100.000 (99.719)
Epoch: [149][770/781]	Time 0.357 (0.380)	Data 0.015 (0.013)	Loss 0.5019 (0.3107)	Prec@1 84.375 (89.052)	Prec@5 100.000 (99.716)
Epoch: [149][780/781]	Time 0.359 (0.380)	Data 0.011 (0.013)	Loss 0.3273 (0.3109)	Prec@1 89.062 (89.060)	Prec@5 100.000 (99.716)
 * Prec@1 84.530 Prec@5 99.390
84.68
The Best accuracy fornet149is:  84.68
net150 (
  (sml): Linear (12288 -> 10)
  (conv1): Sequential (
    (0): Conv2d(3, 64, kernel_size=(3, 3), stride=(1, 1), padding=(1, 1))
  )
  (block1_U1_l1): Sequential (
    (0): Sequential (
      (0): Sequential (
        (0): Conv2d(3, 64, kernel_size=(1, 1), stride=(1, 1))
        (1): BatchNorm2d(64, eps=1e-05, momentum=0.1, affine=True)
        (2): ReLU ()
      )
      (1): Sequential (
        (0): Conv2d(64, 64, kernel_size=(1, 7), stride=(1, 1), padding=(0, 3))
        (1): BatchNorm2d(64, eps=1e-05, momentum=0.1, affine=True)
        (2): ReLU ()
      )
      (2): Sequential (
        (0): Conv2d(64, 64, kernel_size=(7, 1), stride=(1, 1), padding=(3, 0))
        (1): BatchNorm2d(64, eps=1e-05, momentum=0.1, affine=True)
        (2): ReLU ()
      )
    )
  )
  (block1_U1_l2): Sequential (
    (0): Sequential (
      (0): Conv2d(3, 3, kernel_size=(3, 3), stride=(1, 1), padding=(1, 1), groups=3)
      (1): BatchNorm2d(3, eps=1e-05, momentum=0.1, affine=True)
      (2): Conv2d(3, 64, kernel_size=(1, 1), stride=(1, 1))
      (3): BatchNorm2d(64, eps=1e-05, momentum=0.1, affine=True)
      (4): ReLU ()
    )
  )
  (block1_U2_l1): Sequential (
    (0): Sequential (
      (0): Conv2d(3, 64, kernel_size=(3, 3), stride=(1, 1), padding=(2, 2), dilation=(2, 2))
      (1): BatchNorm2d(64, eps=1e-05, momentum=0.1, affine=True)
      (2): ReLU ()
    )
  )
  (block1_U2_l2): Sequential (
    (0): Sequential (
      (0): Conv2d(64, 64, kernel_size=(5, 5), stride=(1, 1), padding=(2, 2), groups=64)
      (1): BatchNorm2d(64, eps=1e-05, momentum=0.1, affine=True)
      (2): Conv2d(64, 64, kernel_size=(1, 1), stride=(1, 1))
      (3): BatchNorm2d(64, eps=1e-05, momentum=0.1, affine=True)
      (4): ReLU ()
    )
  )
  (block2_U1_l1): Sequential (
    (0): Sequential (
      (0): Sequential (
        (0): Conv2d(192, 64, kernel_size=(1, 1), stride=(2, 2))
        (1): BatchNorm2d(64, eps=1e-05, momentum=0.1, affine=True)
        (2): ReLU ()
      )
      (1): Sequential (
        (0): Conv2d(64, 64, kernel_size=(1, 7), stride=(1, 1), padding=(0, 3))
        (1): BatchNorm2d(64, eps=1e-05, momentum=0.1, affine=True)
        (2): ReLU ()
      )
      (2): Sequential (
        (0): Conv2d(64, 64, kernel_size=(7, 1), stride=(1, 1), padding=(3, 0))
        (1): BatchNorm2d(64, eps=1e-05, momentum=0.1, affine=True)
        (2): ReLU ()
      )
    )
  )
  (block2_U1_l2): Sequential (
    (0): Sequential (
      (0): Conv2d(192, 192, kernel_size=(3, 3), stride=(2, 2), padding=(1, 1), groups=192)
      (1): BatchNorm2d(192, eps=1e-05, momentum=0.1, affine=True)
      (2): Conv2d(192, 64, kernel_size=(1, 1), stride=(1, 1))
      (3): BatchNorm2d(64, eps=1e-05, momentum=0.1, affine=True)
      (4): ReLU ()
    )
  )
  (block2_U2_l1): Sequential (
    (0): Sequential (
      (0): Conv2d(192, 64, kernel_size=(3, 3), stride=(2, 2), padding=(2, 2), dilation=(2, 2))
      (1): BatchNorm2d(64, eps=1e-05, momentum=0.1, affine=True)
      (2): ReLU ()
    )
  )
  (block2_U2_l2): Sequential (
    (0): Sequential (
      (0): Conv2d(64, 64, kernel_size=(5, 5), stride=(1, 1), padding=(2, 2), groups=64)
      (1): BatchNorm2d(64, eps=1e-05, momentum=0.1, affine=True)
      (2): Conv2d(64, 64, kernel_size=(1, 1), stride=(1, 1))
      (3): BatchNorm2d(64, eps=1e-05, momentum=0.1, affine=True)
      (4): ReLU ()
    )
  )
  (block3_U1_l1): Sequential (
    (0): Sequential (
      (0): Sequential (
        (0): Conv2d(192, 128, kernel_size=(1, 1), stride=(1, 1))
        (1): BatchNorm2d(128, eps=1e-05, momentum=0.1, affine=True)
        (2): ReLU ()
      )
      (1): Sequential (
        (0): Conv2d(128, 128, kernel_size=(1, 7), stride=(1, 1), padding=(0, 3))
        (1): BatchNorm2d(128, eps=1e-05, momentum=0.1, affine=True)
        (2): ReLU ()
      )
      (2): Sequential (
        (0): Conv2d(128, 128, kernel_size=(7, 1), stride=(1, 1), padding=(3, 0))
        (1): BatchNorm2d(128, eps=1e-05, momentum=0.1, affine=True)
        (2): ReLU ()
      )
    )
  )
  (block3_U1_l2): Sequential (
    (0): Sequential (
      (0): Conv2d(192, 192, kernel_size=(3, 3), stride=(1, 1), padding=(1, 1), groups=192)
      (1): BatchNorm2d(192, eps=1e-05, momentum=0.1, affine=True)
      (2): Conv2d(192, 128, kernel_size=(1, 1), stride=(1, 1))
      (3): BatchNorm2d(128, eps=1e-05, momentum=0.1, affine=True)
      (4): ReLU ()
    )
  )
  (block3_U2_l1): Sequential (
    (0): Sequential (
      (0): Conv2d(192, 128, kernel_size=(3, 3), stride=(1, 1), padding=(2, 2), dilation=(2, 2))
      (1): BatchNorm2d(128, eps=1e-05, momentum=0.1, affine=True)
      (2): ReLU ()
    )
  )
  (block3_U2_l2): Sequential (
    (0): Sequential (
      (0): Conv2d(128, 128, kernel_size=(5, 5), stride=(1, 1), padding=(2, 2), groups=128)
      (1): BatchNorm2d(128, eps=1e-05, momentum=0.1, affine=True)
      (2): Conv2d(128, 128, kernel_size=(1, 1), stride=(1, 1))
      (3): BatchNorm2d(128, eps=1e-05, momentum=0.1, affine=True)
      (4): ReLU ()
    )
  )
  (block4_U1_l1): Sequential (
    (0): Sequential (
      (0): Sequential (
        (0): Conv2d(384, 128, kernel_size=(1, 1), stride=(2, 2))
        (1): BatchNorm2d(128, eps=1e-05, momentum=0.1, affine=True)
        (2): ReLU ()
      )
      (1): Sequential (
        (0): Conv2d(128, 128, kernel_size=(1, 7), stride=(1, 1), padding=(0, 3))
        (1): BatchNorm2d(128, eps=1e-05, momentum=0.1, affine=True)
        (2): ReLU ()
      )
      (2): Sequential (
        (0): Conv2d(128, 128, kernel_size=(7, 1), stride=(1, 1), padding=(3, 0))
        (1): BatchNorm2d(128, eps=1e-05, momentum=0.1, affine=True)
        (2): ReLU ()
      )
    )
  )
  (block4_U1_l2): Sequential (
    (0): Sequential (
      (0): Conv2d(384, 384, kernel_size=(3, 3), stride=(2, 2), padding=(1, 1), groups=384)
      (1): BatchNorm2d(384, eps=1e-05, momentum=0.1, affine=True)
      (2): Conv2d(384, 128, kernel_size=(1, 1), stride=(1, 1))
      (3): BatchNorm2d(128, eps=1e-05, momentum=0.1, affine=True)
      (4): ReLU ()
    )
  )
  (block4_U2_l1): Sequential (
    (0): Sequential (
      (0): Conv2d(384, 128, kernel_size=(3, 3), stride=(2, 2), padding=(2, 2), dilation=(2, 2))
      (1): BatchNorm2d(128, eps=1e-05, momentum=0.1, affine=True)
      (2): ReLU ()
    )
  )
  (block4_U2_l2): Sequential (
    (0): Sequential (
      (0): Conv2d(128, 128, kernel_size=(5, 5), stride=(1, 1), padding=(2, 2), groups=128)
      (1): BatchNorm2d(128, eps=1e-05, momentum=0.1, affine=True)
      (2): Conv2d(128, 128, kernel_size=(1, 1), stride=(1, 1))
      (3): BatchNorm2d(128, eps=1e-05, momentum=0.1, affine=True)
      (4): ReLU ()
    )
  )
  (block5_U1_l1): Sequential (
    (0): Sequential (
      (0): Sequential (
        (0): Conv2d(384, 256, kernel_size=(1, 1), stride=(1, 1))
        (1): BatchNorm2d(256, eps=1e-05, momentum=0.1, affine=True)
        (2): ReLU ()
      )
      (1): Sequential (
        (0): Conv2d(256, 256, kernel_size=(1, 7), stride=(1, 1), padding=(0, 3))
        (1): BatchNorm2d(256, eps=1e-05, momentum=0.1, affine=True)
        (2): ReLU ()
      )
      (2): Sequential (
        (0): Conv2d(256, 256, kernel_size=(7, 1), stride=(1, 1), padding=(3, 0))
        (1): BatchNorm2d(256, eps=1e-05, momentum=0.1, affine=True)
        (2): ReLU ()
      )
    )
  )
  (block5_U1_l2): Sequential (
    (0): Sequential (
      (0): Conv2d(384, 384, kernel_size=(3, 3), stride=(1, 1), padding=(1, 1), groups=384)
      (1): BatchNorm2d(384, eps=1e-05, momentum=0.1, affine=True)
      (2): Conv2d(384, 256, kernel_size=(1, 1), stride=(1, 1))
      (3): BatchNorm2d(256, eps=1e-05, momentum=0.1, affine=True)
      (4): ReLU ()
    )
  )
  (block5_U2_l1): Sequential (
    (0): Sequential (
      (0): Conv2d(384, 256, kernel_size=(3, 3), stride=(1, 1), padding=(2, 2), dilation=(2, 2))
      (1): BatchNorm2d(256, eps=1e-05, momentum=0.1, affine=True)
      (2): ReLU ()
    )
  )
  (block5_U2_l2): Sequential (
    (0): Sequential (
      (0): Conv2d(256, 256, kernel_size=(5, 5), stride=(1, 1), padding=(2, 2), groups=256)
      (1): BatchNorm2d(256, eps=1e-05, momentum=0.1, affine=True)
      (2): Conv2d(256, 256, kernel_size=(1, 1), stride=(1, 1))
      (3): BatchNorm2d(256, eps=1e-05, momentum=0.1, affine=True)
      (4): ReLU ()
    )
  )
  (lmx): Sequential (
    (0): MaxPool2d (size=(2, 2), stride=(2, 2), dilation=(1, 1))
  )
)
32
Epoch: [0][0/781]	Time 0.386 (0.386)	Data 0.010 (0.010)	Loss 2.3792 (2.3792)	Prec@1 10.938 (10.938)	Prec@5 54.688 (54.688)
Epoch: [0][10/781]	Time 0.365 (0.374)	Data 0.013 (0.013)	Loss 7.9306 (19.7847)	Prec@1 15.625 (10.795)	Prec@5 56.250 (51.989)
…
