nohup: ignoring input
net1 (
  (sml): Linear (8192 -> 10)
  (conv1): Sequential (
    (0): Conv2d(3, 64, kernel_size=(3, 3), stride=(1, 1), padding=(1, 1))
  )
  (block1_U1_l1): Sequential (
    (0): Sequential (
      (0): Sequential (
        (0): Conv2d(3, 64, kernel_size=(1, 1), stride=(1, 1))
        (1): BatchNorm2d(64, eps=1e-05, momentum=0.1, affine=True)
        (2): ReLU ()
      )
      (1): Sequential (
        (0): Conv2d(64, 64, kernel_size=(1, 7), stride=(1, 1), padding=(0, 3))
        (1): BatchNorm2d(64, eps=1e-05, momentum=0.1, affine=True)
        (2): ReLU ()
      )
      (2): Sequential (
        (0): Conv2d(64, 64, kernel_size=(7, 1), stride=(1, 1), padding=(3, 0))
        (1): BatchNorm2d(64, eps=1e-05, momentum=0.1, affine=True)
        (2): ReLU ()
      )
    )
  )
  (block1_U1_l2): Sequential (
    (0): Sequential (
      (0): Conv2d(3, 3, kernel_size=(3, 3), stride=(1, 1), padding=(1, 1), groups=3)
      (1): BatchNorm2d(3, eps=1e-05, momentum=0.1, affine=True)
      (2): Conv2d(3, 64, kernel_size=(1, 1), stride=(1, 1))
      (3): BatchNorm2d(64, eps=1e-05, momentum=0.1, affine=True)
      (4): ReLU ()
    )
  )
  (block1_U2_l1): Sequential (
    (0): Sequential (
      (0): Conv2d(3, 64, kernel_size=(1, 1), stride=(1, 1))
      (1): BatchNorm2d(64, eps=1e-05, momentum=0.1, affine=True)
      (2): AvgPool2d (size=3, stride=1, padding=1, ceil_mode=False, count_include_pad=True)
    )
  )
  (block1_U2_l2): Sequential (
    (0): Sequential (
      (0): Conv2d(3, 64, kernel_size=(1, 1), stride=(1, 1))
      (1): BatchNorm2d(64, eps=1e-05, momentum=0.1, affine=True)
      (2): AvgPool2d (size=3, stride=1, padding=1, ceil_mode=False, count_include_pad=True)
    )
  )
  (block2_U1_l1): Sequential (
    (0): Sequential (
      (0): Sequential (
        (0): Conv2d(128, 64, kernel_size=(1, 1), stride=(2, 2))
        (1): BatchNorm2d(64, eps=1e-05, momentum=0.1, affine=True)
        (2): ReLU ()
      )
      (1): Sequential (
        (0): Conv2d(64, 64, kernel_size=(1, 7), stride=(1, 1), padding=(0, 3))
        (1): BatchNorm2d(64, eps=1e-05, momentum=0.1, affine=True)
        (2): ReLU ()
      )
      (2): Sequential (
        (0): Conv2d(64, 64, kernel_size=(7, 1), stride=(1, 1), padding=(3, 0))
        (1): BatchNorm2d(64, eps=1e-05, momentum=0.1, affine=True)
        (2): ReLU ()
      )
    )
  )
  (block2_U1_l2): Sequential (
    (0): Sequential (
      (0): Conv2d(128, 128, kernel_size=(3, 3), stride=(2, 2), padding=(1, 1), groups=128)
      (1): BatchNorm2d(128, eps=1e-05, momentum=0.1, affine=True)
      (2): Conv2d(128, 64, kernel_size=(1, 1), stride=(1, 1))
      (3): BatchNorm2d(64, eps=1e-05, momentum=0.1, affine=True)
      (4): ReLU ()
    )
  )
  (block2_U2_l1): Sequential (
    (0): Sequential (
      (0): Conv2d(128, 64, kernel_size=(1, 1), stride=(1, 1))
      (1): BatchNorm2d(64, eps=1e-05, momentum=0.1, affine=True)
      (2): AvgPool2d (size=3, stride=2, padding=1, ceil_mode=False, count_include_pad=True)
    )
  )
  (block2_U2_l2): Sequential (
    (0): Sequential (
      (0): Conv2d(128, 64, kernel_size=(1, 1), stride=(1, 1))
      (1): BatchNorm2d(64, eps=1e-05, momentum=0.1, affine=True)
      (2): AvgPool2d (size=3, stride=2, padding=1, ceil_mode=False, count_include_pad=True)
    )
  )
  (block3_U1_l1): Sequential (
    (0): Sequential (
      (0): Sequential (
        (0): Conv2d(128, 128, kernel_size=(1, 1), stride=(1, 1))
        (1): BatchNorm2d(128, eps=1e-05, momentum=0.1, affine=True)
        (2): ReLU ()
      )
      (1): Sequential (
        (0): Conv2d(128, 128, kernel_size=(1, 7), stride=(1, 1), padding=(0, 3))
        (1): BatchNorm2d(128, eps=1e-05, momentum=0.1, affine=True)
        (2): ReLU ()
      )
      (2): Sequential (
        (0): Conv2d(128, 128, kernel_size=(7, 1), stride=(1, 1), padding=(3, 0))
        (1): BatchNorm2d(128, eps=1e-05, momentum=0.1, affine=True)
        (2): ReLU ()
      )
    )
  )
  (block3_U1_l2): Sequential (
    (0): Sequential (
      (0): Conv2d(128, 128, kernel_size=(3, 3), stride=(1, 1), padding=(1, 1), groups=128)
      (1): BatchNorm2d(128, eps=1e-05, momentum=0.1, affine=True)
      (2): Conv2d(128, 128, kernel_size=(1, 1), stride=(1, 1))
      (3): BatchNorm2d(128, eps=1e-05, momentum=0.1, affine=True)
      (4): ReLU ()
    )
  )
  (block3_U2_l1): Sequential (
    (0): Sequential (
      (0): Conv2d(128, 128, kernel_size=(1, 1), stride=(1, 1))
      (1): BatchNorm2d(128, eps=1e-05, momentum=0.1, affine=True)
      (2): AvgPool2d (size=3, stride=1, padding=1, ceil_mode=False, count_include_pad=True)
    )
  )
  (block3_U2_l2): Sequential (
    (0): Sequential (
      (0): Conv2d(128, 128, kernel_size=(1, 1), stride=(1, 1))
      (1): BatchNorm2d(128, eps=1e-05, momentum=0.1, affine=True)
      (2): AvgPool2d (size=3, stride=1, padding=1, ceil_mode=False, count_include_pad=True)
    )
  )
  (block4_U1_l1): Sequential (
    (0): Sequential (
      (0): Sequential (
        (0): Conv2d(256, 128, kernel_size=(1, 1), stride=(2, 2))
        (1): BatchNorm2d(128, eps=1e-05, momentum=0.1, affine=True)
        (2): ReLU ()
      )
      (1): Sequential (
        (0): Conv2d(128, 128, kernel_size=(1, 7), stride=(1, 1), padding=(0, 3))
        (1): BatchNorm2d(128, eps=1e-05, momentum=0.1, affine=True)
        (2): ReLU ()
      )
      (2): Sequential (
        (0): Conv2d(128, 128, kernel_size=(7, 1), stride=(1, 1), padding=(3, 0))
        (1): BatchNorm2d(128, eps=1e-05, momentum=0.1, affine=True)
        (2): ReLU ()
      )
    )
  )
  (block4_U1_l2): Sequential (
    (0): Sequential (
      (0): Conv2d(256, 256, kernel_size=(3, 3), stride=(2, 2), padding=(1, 1), groups=256)
      (1): BatchNorm2d(256, eps=1e-05, momentum=0.1, affine=True)
      (2): Conv2d(256, 128, kernel_size=(1, 1), stride=(1, 1))
      (3): BatchNorm2d(128, eps=1e-05, momentum=0.1, affine=True)
      (4): ReLU ()
    )
  )
  (block4_U2_l1): Sequential (
    (0): Sequential (
      (0): Conv2d(256, 128, kernel_size=(1, 1), stride=(1, 1))
      (1): BatchNorm2d(128, eps=1e-05, momentum=0.1, affine=True)
      (2): AvgPool2d (size=3, stride=2, padding=1, ceil_mode=False, count_include_pad=True)
    )
  )
  (block4_U2_l2): Sequential (
    (0): Sequential (
      (0): Conv2d(256, 128, kernel_size=(1, 1), stride=(1, 1))
      (1): BatchNorm2d(128, eps=1e-05, momentum=0.1, affine=True)
      (2): AvgPool2d (size=3, stride=2, padding=1, ceil_mode=False, count_include_pad=True)
    )
  )
  (block5_U1_l1): Sequential (
    (0): Sequential (
      (0): Sequential (
        (0): Conv2d(256, 256, kernel_size=(1, 1), stride=(1, 1))
        (1): BatchNorm2d(256, eps=1e-05, momentum=0.1, affine=True)
        (2): ReLU ()
      )
      (1): Sequential (
        (0): Conv2d(256, 256, kernel_size=(1, 7), stride=(1, 1), padding=(0, 3))
        (1): BatchNorm2d(256, eps=1e-05, momentum=0.1, affine=True)
        (2): ReLU ()
      )
      (2): Sequential (
        (0): Conv2d(256, 256, kernel_size=(7, 1), stride=(1, 1), padding=(3, 0))
        (1): BatchNorm2d(256, eps=1e-05, momentum=0.1, affine=True)
        (2): ReLU ()
      )
    )
  )
  (block5_U1_l2): Sequential (
    (0): Sequential (
      (0): Conv2d(256, 256, kernel_size=(3, 3), stride=(1, 1), padding=(1, 1), groups=256)
      (1): BatchNorm2d(256, eps=1e-05, momentum=0.1, affine=True)
      (2): Conv2d(256, 256, kernel_size=(1, 1), stride=(1, 1))
      (3): BatchNorm2d(256, eps=1e-05, momentum=0.1, affine=True)
      (4): ReLU ()
    )
  )
  (block5_U2_l1): Sequential (
    (0): Sequential (
      (0): Conv2d(256, 256, kernel_size=(1, 1), stride=(1, 1))
      (1): BatchNorm2d(256, eps=1e-05, momentum=0.1, affine=True)
      (2): AvgPool2d (size=3, stride=1, padding=1, ceil_mode=False, count_include_pad=True)
    )
  )
  (block5_U2_l2): Sequential (
    (0): Sequential (
      (0): Conv2d(256, 256, kernel_size=(1, 1), stride=(1, 1))
      (1): BatchNorm2d(256, eps=1e-05, momentum=0.1, affine=True)
      (2): AvgPool2d (size=3, stride=1, padding=1, ceil_mode=False, count_include_pad=True)
    )
  )
  (lmx): Sequential (
    (0): MaxPool2d (size=(2, 2), stride=(2, 2), dilation=(1, 1))
  )
)
32
Epoch: [0][0/781]	Time 1.426 (1.426)	Data 0.012 (0.012)	Loss 2.5518 (2.5518)	Prec@1 9.375 (9.375)	Prec@5 39.062 (39.062)
Epoch: [0][10/781]	Time 0.118 (0.237)	Data 0.015 (0.015)	Loss 3.4505 (10.1591)	Prec@1 23.438 (16.761)	Prec@5 76.562 (60.653)
…
Epoch: [149][750/781]	Time 0.538 (0.573)	Data 0.014 (0.014)	Loss 0.5250 (0.3554)	Prec@1 81.250 (87.602)	Prec@5 100.000 (99.650)
Epoch: [149][760/781]	Time 0.608 (0.573)	Data 0.014 (0.014)	Loss 0.4291 (0.3553)	Prec@1 81.250 (87.594)	Prec@5 100.000 (99.649)
Epoch: [149][770/781]	Time 0.612 (0.574)	Data 0.013 (0.014)	Loss 0.4589 (0.3553)	Prec@1 79.688 (87.599)	Prec@5 100.000 (99.647)
Epoch: [149][780/781]	Time 0.616 (0.574)	Data 0.014 (0.014)	Loss 0.4171 (0.3555)	Prec@1 85.938 (87.588)	Prec@5 98.438 (99.646)
 * Prec@1 84.770 Prec@5 99.290
84.77
1
The Best accuracy fornet1is:  84.77
net2 (
  (sml): Linear (8192 -> 10)
  (conv1): Sequential (
    (0): Conv2d(3, 64, kernel_size=(3, 3), stride=(1, 1), padding=(1, 1))
  )
  (block1_U1_l1): Sequential (
    (0): Sequential (
      (0): Sequential (
        (0): Conv2d(3, 64, kernel_size=(1, 1), stride=(1, 1))
        (1): BatchNorm2d(64, eps=1e-05, momentum=0.1, affine=True)
        (2): ReLU ()
      )
      (1): Sequential (
        (0): Conv2d(64, 64, kernel_size=(1, 7), stride=(1, 1), padding=(0, 3))
        (1): BatchNorm2d(64, eps=1e-05, momentum=0.1, affine=True)
        (2): ReLU ()
      )
      (2): Sequential (
        (0): Conv2d(64, 64, kernel_size=(7, 1), stride=(1, 1), padding=(3, 0))
        (1): BatchNorm2d(64, eps=1e-05, momentum=0.1, affine=True)
        (2): ReLU ()
      )
    )
  )
  (block1_U1_l2): Sequential (
    (0): Sequential (
      (0): Conv2d(3, 3, kernel_size=(3, 3), stride=(1, 1), padding=(1, 1), groups=3)
      (1): BatchNorm2d(3, eps=1e-05, momentum=0.1, affine=True)
      (2): Conv2d(3, 64, kernel_size=(1, 1), stride=(1, 1))
      (3): BatchNorm2d(64, eps=1e-05, momentum=0.1, affine=True)
      (4): ReLU ()
    )
  )
  (block1_U2_l1): Sequential (
    (0): Sequential (
      (0): Conv2d(3, 64, kernel_size=(1, 1), stride=(1, 1))
      (1): BatchNorm2d(64, eps=1e-05, momentum=0.1, affine=True)
      (2): AvgPool2d (size=3, stride=1, padding=1, ceil_mode=False, count_include_pad=True)
    )
  )
  (block1_U2_l2): Sequential (
    (0): Sequential (
      (0): Conv2d(64, 64, kernel_size=(1, 1), stride=(1, 1))
      (1): BatchNorm2d(64, eps=1e-05, momentum=0.1, affine=True)
      (2): AvgPool2d (size=3, stride=1, padding=1, ceil_mode=False, count_include_pad=True)
    )
  )
  (block2_U1_l1): Sequential (
    (0): Sequential (
      (0): Sequential (
        (0): Conv2d(128, 64, kernel_size=(1, 1), stride=(2, 2))
        (1): BatchNorm2d(64, eps=1e-05, momentum=0.1, affine=True)
        (2): ReLU ()
      )
      (1): Sequential (
        (0): Conv2d(64, 64, kernel_size=(1, 7), stride=(1, 1), padding=(0, 3))
        (1): BatchNorm2d(64, eps=1e-05, momentum=0.1, affine=True)
        (2): ReLU ()
      )
      (2): Sequential (
        (0): Conv2d(64, 64, kernel_size=(7, 1), stride=(1, 1), padding=(3, 0))
        (1): BatchNorm2d(64, eps=1e-05, momentum=0.1, affine=True)
        (2): ReLU ()
      )
    )
  )
  (block2_U1_l2): Sequential (
    (0): Sequential (
      (0): Conv2d(128, 128, kernel_size=(3, 3), stride=(2, 2), padding=(1, 1), groups=128)
      (1): BatchNorm2d(128, eps=1e-05, momentum=0.1, affine=True)
      (2): Conv2d(128, 64, kernel_size=(1, 1), stride=(1, 1))
      (3): BatchNorm2d(64, eps=1e-05, momentum=0.1, affine=True)
      (4): ReLU ()
    )
  )
  (block2_U2_l1): Sequential (
    (0): Sequential (
      (0): Conv2d(128, 64, kernel_size=(1, 1), stride=(1, 1))
      (1): BatchNorm2d(64, eps=1e-05, momentum=0.1, affine=True)
      (2): AvgPool2d (size=3, stride=2, padding=1, ceil_mode=False, count_include_pad=True)
    )
  )
  (block2_U2_l2): Sequential (
    (0): Sequential (
      (0): Conv2d(64, 64, kernel_size=(1, 1), stride=(1, 1))
      (1): BatchNorm2d(64, eps=1e-05, momentum=0.1, affine=True)
      (2): AvgPool2d (size=3, stride=1, padding=1, ceil_mode=False, count_include_pad=True)
    )
  )
  (block3_U1_l1): Sequential (
    (0): Sequential (
      (0): Sequential (
        (0): Conv2d(128, 128, kernel_size=(1, 1), stride=(1, 1))
        (1): BatchNorm2d(128, eps=1e-05, momentum=0.1, affine=True)
        (2): ReLU ()
      )
      (1): Sequential (
        (0): Conv2d(128, 128, kernel_size=(1, 7), stride=(1, 1), padding=(0, 3))
        (1): BatchNorm2d(128, eps=1e-05, momentum=0.1, affine=True)
        (2): ReLU ()
      )
      (2): Sequential (
        (0): Conv2d(128, 128, kernel_size=(7, 1), stride=(1, 1), padding=(3, 0))
        (1): BatchNorm2d(128, eps=1e-05, momentum=0.1, affine=True)
        (2): ReLU ()
      )
    )
  )
  (block3_U1_l2): Sequential (
    (0): Sequential (
      (0): Conv2d(128, 128, kernel_size=(3, 3), stride=(1, 1), padding=(1, 1), groups=128)
      (1): BatchNorm2d(128, eps=1e-05, momentum=0.1, affine=True)
      (2): Conv2d(128, 128, kernel_size=(1, 1), stride=(1, 1))
      (3): BatchNorm2d(128, eps=1e-05, momentum=0.1, affine=True)
      (4): ReLU ()
    )
  )
  (block3_U2_l1): Sequential (
    (0): Sequential (
      (0): Conv2d(128, 128, kernel_size=(1, 1), stride=(1, 1))
      (1): BatchNorm2d(128, eps=1e-05, momentum=0.1, affine=True)
      (2): AvgPool2d (size=3, stride=1, padding=1, ceil_mode=False, count_include_pad=True)
    )
  )
  (block3_U2_l2): Sequential (
    (0): Sequential (
      (0): Conv2d(128, 128, kernel_size=(1, 1), stride=(1, 1))
      (1): BatchNorm2d(128, eps=1e-05, momentum=0.1, affine=True)
      (2): AvgPool2d (size=3, stride=1, padding=1, ceil_mode=False, count_include_pad=True)
    )
  )
  (block4_U1_l1): Sequential (
    (0): Sequential (
      (0): Sequential (
        (0): Conv2d(256, 128, kernel_size=(1, 1), stride=(2, 2))
        (1): BatchNorm2d(128, eps=1e-05, momentum=0.1, affine=True)
        (2): ReLU ()
      )
      (1): Sequential (
        (0): Conv2d(128, 128, kernel_size=(1, 7), stride=(1, 1), padding=(0, 3))
        (1): BatchNorm2d(128, eps=1e-05, momentum=0.1, affine=True)
        (2): ReLU ()
      )
      (2): Sequential (
        (0): Conv2d(128, 128, kernel_size=(7, 1), stride=(1, 1), padding=(3, 0))
        (1): BatchNorm2d(128, eps=1e-05, momentum=0.1, affine=True)
        (2): ReLU ()
      )
    )
  )
  (block4_U1_l2): Sequential (
    (0): Sequential (
      (0): Conv2d(256, 256, kernel_size=(3, 3), stride=(2, 2), padding=(1, 1), groups=256)
      (1): BatchNorm2d(256, eps=1e-05, momentum=0.1, affine=True)
      (2): Conv2d(256, 128, kernel_size=(1, 1), stride=(1, 1))
      (3): BatchNorm2d(128, eps=1e-05, momentum=0.1, affine=True)
      (4): ReLU ()
    )
  )
  (block4_U2_l1): Sequential (
    (0): Sequential (
      (0): Conv2d(256, 128, kernel_size=(1, 1), stride=(1, 1))
      (1): BatchNorm2d(128, eps=1e-05, momentum=0.1, affine=True)
      (2): AvgPool2d (size=3, stride=2, padding=1, ceil_mode=False, count_include_pad=True)
    )
  )
  (block4_U2_l2): Sequential (
    (0): Sequential (
      (0): Conv2d(128, 128, kernel_size=(1, 1), stride=(1, 1))
      (1): BatchNorm2d(128, eps=1e-05, momentum=0.1, affine=True)
      (2): AvgPool2d (size=3, stride=1, padding=1, ceil_mode=False, count_include_pad=True)
    )
  )
  (block5_U1_l1): Sequential (
    (0): Sequential (
      (0): Sequential (
        (0): Conv2d(256, 256, kernel_size=(1, 1), stride=(1, 1))
        (1): BatchNorm2d(256, eps=1e-05, momentum=0.1, affine=True)
        (2): ReLU ()
      )
      (1): Sequential (
        (0): Conv2d(256, 256, kernel_size=(1, 7), stride=(1, 1), padding=(0, 3))
        (1): BatchNorm2d(256, eps=1e-05, momentum=0.1, affine=True)
        (2): ReLU ()
      )
      (2): Sequential (
        (0): Conv2d(256, 256, kernel_size=(7, 1), stride=(1, 1), padding=(3, 0))
        (1): BatchNorm2d(256, eps=1e-05, momentum=0.1, affine=True)
        (2): ReLU ()
      )
    )
  )
  (block5_U1_l2): Sequential (
    (0): Sequential (
      (0): Conv2d(256, 256, kernel_size=(3, 3), stride=(1, 1), padding=(1, 1), groups=256)
      (1): BatchNorm2d(256, eps=1e-05, momentum=0.1, affine=True)
      (2): Conv2d(256, 256, kernel_size=(1, 1), stride=(1, 1))
      (3): BatchNorm2d(256, eps=1e-05, momentum=0.1, affine=True)
      (4): ReLU ()
    )
  )
  (block5_U2_l1): Sequential (
    (0): Sequential (
      (0): Conv2d(256, 256, kernel_size=(1, 1), stride=(1, 1))
      (1): BatchNorm2d(256, eps=1e-05, momentum=0.1, affine=True)
      (2): AvgPool2d (size=3, stride=1, padding=1, ceil_mode=False, count_include_pad=True)
    )
  )
  (block5_U2_l2): Sequential (
    (0): Sequential (
      (0): Conv2d(256, 256, kernel_size=(1, 1), stride=(1, 1))
      (1): BatchNorm2d(256, eps=1e-05, momentum=0.1, affine=True)
      (2): AvgPool2d (size=3, stride=1, padding=1, ceil_mode=False, count_include_pad=True)
    )
  )
  (lmx): Sequential (
    (0): MaxPool2d (size=(2, 2), stride=(2, 2), dilation=(1, 1))
  )
)
32
Epoch: [0][0/781]	Time 0.704 (0.704)	Data 0.015 (0.015)	Loss 2.3036 (2.3036)	Prec@1 18.750 (18.750)	Prec@5 59.375 (59.375)
Epoch: [0][10/781]	Time 0.565 (0.562)	Data 0.014 (0.026)	Loss 4.8288 (8.1519)	Prec@1 20.312 (14.489)	Prec@5 59.375 (61.080)
…
